tDLambda/1.pt (torch_old, 53056 bytes, 5 tensors)

fc1.weight f4 [128, 68]
-0.045451187 -0.029323667 -0.04640452 -0.103422016 -0.019014403 -0.104519874 -0.064703815 -0.023124263
-0.06882249 0.11949597 -0.02116067 0.02275531 0.027350232 -0.084416576 -0.11027306 0.00084669143
0.120740205 -0.027066305 0.046783015 -0.07995331 -0.08769106 -0.005842924 0.06016603 -0.11250728
0.0015091747 0.08414671 -0.058489367 -0.0556247 -0.021469817 0.04459274 -0.104228705 0.0025498495
0.1079409 -0.06406394 -0.07326212 -0.040565886 0.027782843 0.024229184 0.00032106042 0.10663168
0.08867282 0.005010009 0.045228407 -0.033614956 0.036219195 -0.057404898 -0.0057685375 -0.10798207
-0.072169155 0.0177183 0.05313666 -0.022629902 0.055810377 0.030940175 0.05717385 -0.11202724
-0.0694121 0.009592071 -0.031879194 -0.024081811 0.05383207 0.07801983 -0.05791565 0.057603464
0.080725715 0.08353278 -0.049942814 -0.029394977 -0.010499239 -0.10552215 0.0406816 0.068543255
-0.08897173 -0.12071787 -0.001330629 -0.027709924 0.118438184 -0.005766928 0.05437866 -0.102436855
-0.024157248 0.11829662 -0.1127244 -0.09931962 -0.0124809295 0.090704516 -0.060011014 0.04663655
0.061736465 0.06658918 -0.06475719 0.08344954 0.097106904 -0.024376579 0.032107756 0.108268455
-0.118519776 0.0044275075 0.11658695 0.03746958 -0.020767577 -0.10438228 -0.008540072 -0.012344368
0.030687124 0.106994 -0.0018936694 0.011173829 0.009605229 -0.04721301 -0.07341716 -0.041584544
0.015892074 -0.119681165 0.06706679 -0.035552904 0.048898354 0.044295073 0.107037395 -0.013096824
0.10401553 0.03135109 0.030651733 -0.007186666 0.026113406 -0.005885832 0.021190628 -0.015439086
0.032482684 -0.043474235 -0.016419694 -0.07733823 0.047573373 0.074538395 -0.06972041 -0.02481936
-0.045293726 0.032280594 0.07814202 -0.056940667 0.056471273 -0.06969781 -0.014370151 -0.02723404
0.026135042 -0.06438993 0.05135481 0.05825931 -0.012930974 0.08485238 -0.08732678 0.10380463
-0.07309468 -0.078115255 0.033137143 -0.06545445 0.10068326 0.0013631657 -0.056767568 0.0060979724
-0.081699 0.057989314 0.10318416 -0.059514645 0.10596731 0.060332358 0.09957996 0.09559032
0.07257664 -0.10783245 0.018822 0.10016337 0.11720991 0.06562348 -0.0685424 -0.07183197
-0.051385015 -0.056337453 -0.046888858 0.047560424 0.009848863 0.0006689653 -0.11184396 -0.07774332
-0.08700363 0.064661905 -0.07470352 -0.023195937 0.037099466 0.070338935 -0.030727074 0.07945408
0.07118529 0.03752929 -0.0819934 -0.11096126 -0.113674894 0.0017956719 0.053585887 0.03966452
-0.09497685 -0.08432242 0.0837774 -0.092296995 0.05444528 0.036909267 -0.07811264 0.060559213
0.11544247 0.023545593 -0.024438754 0.11431612 -0.041724667 0.013231143 0.0348541 0.04144922
-0.051251814 -0.035317183 -0.034460776 -0.038932703 -0.07842495 -0.052316807 -0.034029663 0.05353494
-0.03539759 0.11534521 -0.085907765 -0.05100619 -0.089198396 -0.1207254 0.09699422 0.03847894
0.05039926 0.121256724 -0.00519339 -0.047776602 0.0063347667 0.041577518 -0.05984987 -0.01830531
0.02499123 0.1171232 -0.047225907 0.08486444 -0.098557666 -0.1153859 0.054804668 -0.09042841
-0.06722997 0.114913404 0.046148166 0.07507256 0.08169763 0.06826876 -0.10777029 -0.10690894
00000000: 062b 3abd 3038 f0bc aa12 3ebd ecce d3bd
00000010: 18c4 9bbc 840e d6bd 6f83 84bd 186f bdbc
00000020: cef2 8cbd 4eba f43d 2459 adbc 5869 ba3c
00000030: 980d e03c 99e2 acbd d8d6 e1bd 80f4 5d3a
00000040: a446 f73d 28ba ddbc 8c9f 3f3d 90be a3bd
00000050: 5f97 b3bd 0076 bfbb a870 763d 386a e6bd
00000060: 80cf c53a 1c55 ac3d 8c92 6fbd bad6 63bd
00000070: 78e1 afbc e0a6 363d dc75 d5bd 601b 273b
00000080: 1e10 dd3d f433 83bd 730a 96bd 6a28 26bd
00000090: d898 e33c 487c c63c 0054 a839 b661 da3d
000000a0: 189a b53d 002b a43b 6c41 393d d6af 09bd
000000b0: 945a 143d 6621 6bbd 0006 bdbb b425 ddbd
000000c0: 6ccd 93bd f825 913c d4a5 593d 5862 b9bc
000000d0: 6c99 643d 4076 fd3c 202f 6a3d 8a6e e5bd
000000e0: ee27 8ebd 1028 1d3c c293 02bd 3847 c5bc
000000f0: 047f 5c3d dcc8 9f3d f638 6dbd 9cf1 6b3d
00000100: 8653 a53d 3c13 ab3d d690 4cbd bccd f0bc
00000110: 0005 2cbc ff1b d8bd c0a1 263d 6860 8c3d
00000120: cf36 b6bd ee3a f7bd 8068 aeba ecff e2bc
00000130: b88f f23d 80f8 bcbb 28bc 5e3d 6aca d1bd
00000140: 6ce5 c5bc 8045 f23d 0ddc e6bd 1668 cbbd
00000150: d07c 4cbc 4ac3 b93d 1cce 75bd f805 3f3d
00000160: 60df 7c3d e85f 883d 6b9f 84bd 98e7 aa3d
00000170: fcdf c63d 64b1 c7bc 6c83 033d dabb dd3d
00000180: 7fba f2bd a014 913b 24c5 ee3d b479 193d
00000190: c420 aabc 60c6 d5bd a8eb 0bbc 0840 4abc
000001a0: 9063 fb3c ac1f db3d 0035 f8ba 7012 373c
000001b0: 405f 1d3c 6e62 41bd bc5b 96bd 8e54 2abd
000001c0: 1830 823c 661b f5bd 505a 893d ec9f 11bd
000001d0: a449 483d c06e 353d 6c36 db3d 1094 56bc
000001e0: 1806 d53d 006a 003d 5819 fb3c 207e ebbb
000001f0: c8eb d53c f0dd c0bb f897 ad3c 38f4 7cbc
00000200: 900c 053d 0a12 32bd 9882 86bc 8263 9ebd
00000210: 4cdc 423d 96a7 983d 93c9 8ebd f851 cbbc
00000220: ea85 39bd a838 043d ec08 a03d 9e3a 69bd
00000230: 6c4e 673d babd 8ebd c870 6bbc ec19 dfbc
00000240: 2819 d63c dede 83bd 6c59 523d 50a1 6e3d
00000250: 70dc 53bc 16c7 ad3d 62d8 b2bd 8697 d43d
00000260: aab2 95bd e4fa 9fbd d0ba 073d fc0c 86bd
00000270: 0633 ce3d 40ac b23a 1c85 68bd 80d1 c73b
00000280: ce51 a7bd 3486 6d3d 3852 d33d a1c5 73bd
00000290: 6405 d93d 101f 773d 94f0 cb3d dcc4 c33d
000002a0: 10a3 943d 42d7 dcbd 9830 9a3c 7422 cd3d
000002b0: c00b f03d 9a65 863d f55f 8cbd a41c 93bd
000002c0: 1879 52bd 1ac2 66bd 880e 40bd b8ce 423d
000002d0: 205d 213c 805d 2f3a 720e e5bd e437 9fbd
000002e0: f62e b2bd 766d 843d 29fe 98bd 6805 bebc
000002f0: 9cf5 173d dc0d 903d 58b7 fbbc d2b8 a23d
00000300: 98c9 913d 50b8 193d 28ec a7bd a83f e3bd
00000310: 62ce e8bd c05c eb3a e07c 5b3d 4477 223d
00000320: 3983 c2bd 3cb1 acbd 7c93 ab3d 3506 bdbd
00000330: 0402 5f3d 2c2e 173d 85f9 9fbd f00c 783d
00000340: 1a6d ec3d b0e2 c03c c833 c8bc 921e ea3d
00000350: 7ce7 2abd 70c7 583c 2cc3 0e3d a8c6 293d
00000360: 6ced 51bd c0a8 10bd be26 0dbd e677 1fbd
00000370: 439d a0bd 264a 56bd b062 0bbd 7447 5b3d
00000380: 10fd 10bd 1c3a ec3d 69f0 afbd deeb 50bd
00000390: a6ad b6bd e13e f7bd e8a4 c63d 189c 1d3d
000003a0: 746f 4e3d 7255 f83d 502d aabb 66b1 43bd
000003b0: e093 cf3b 304d 2a3d 2325 75bd 04f5 95bc
000003c0: 68ba cc3c 4ade ef3d f46f 41bd 68cd ad3d
000003d0: 9ad8 c9bd 714f ecbd dc7a 603d 8832 b9bd
000003e0: deaf 89bd b857 eb3d dc05 3d3d a4bf 993d
000003f0: 1651 a73d 7ed0 8b3d abb6 dcbd 13f3 dabd

fc1.bias f4 [128]
-0.06657243 0.02191481 -0.03288454 -0.11054917 -0.030406348 0.07659607 0.03558573 -0.011197783
0.00075136125 0.113865525 0.07097435 0.03769441 -0.07975571 0.063262895 -0.077600226 -0.095333815
0.11746438 -0.022478402 -0.06254576 0.05980119 0.09232077 -0.10160756 -0.018111639 0.017026171
-0.0832147 0.020289004 -0.06521088 -0.06572755 -0.08035771 -0.027301028 -0.07405166 -0.05289209
0.11596446 -0.077620104 -0.05735173 0.121100426 0.115748614 -0.025611661 -0.037871026 0.021205157
0.08813763 -0.033268496 -0.102878764 -0.011596121 0.09206022 -0.104662046 -0.06606601 0.030360118
0.026548237 0.077356234 0.10316549 -0.11365674 0.026649192 -0.10063792 0.0105146915 -0.060259447
0.044568002 -0.058933865 -0.0855423 0.10022615 0.050547242 -0.063191205 -0.019796371 0.0010198429
-0.12026355 0.105326355 -0.018042699 0.03068386 0.043093488 -0.02398175 0.092483014 -0.0669088
0.056830645 0.05462563 0.05819033 -0.083869085 -0.09594509 -0.018359162 0.0011225566 -0.05113732
-0.08952379 -0.100229286 -0.03590396 -0.111447796 0.09840372 -0.11203585 -0.10878501 0.100012526
0.0866991 -0.08181899 0.06649834 -0.027520552 -0.036727965 -0.0068648383 -0.043625705 -0.018495299
0.015323758 0.0074589103 -0.0018862635 -0.062103268 -0.026951723 -0.01705774 -0.010771669 -0.11589081
0.024992123 -0.006814949 0.04385975 -0.02621051 0.05273524 -0.055522896 0.054244086 -0.11057467
-0.05914331 -0.059653208 -0.071164675 -0.062270366 0.09155753 0.0883715 0.10508226 0.06865159
-0.0367463 0.058012724 0.0013280511 0.06491913 0.02851969 0.0377454 -0.007487282 -0.036152177
00000000: 2057 88bd b086 b33c f0b1 06bd 9a67 e2bd
00000010: bc16 f9bc 66de 9c3d 58c2 113d e876 37bc
00000020: 00f7 443a 5432 e93d 005b 913d 7465 1a3d
00000030: f656 a3bd fa8f 813d deec 9ebd 603e c3bd
00000040: 2a91 f03d a024 b8bc fe17 80bd 18f2 743d
00000050: ac12 bd3d a017 d0bd dc5e 94bc 787a 8b3c
00000060: 786c aabd 2035 a63c 488d 85bd 2a9c 86bd
00000070: 9592 a4bd 68a6 dfbc 66a8 97bd 60a5 58bd
00000080: c67e ed3d 4af7 9ebd a6e9 6abd 8003 f83d
00000090: 9c0d ed3d 8ccf d1bc a61e 1bbd 70b6 ad3c
000000a0: 8081 b43d 8c44 08bd 1ab2 d2bd a8fd 3dbc
000000b0: 128a bc3d 0e59 d6bd 9e4d 87bd c8b5 f83c
000000c0: b07b d93c f26c 9e3d 6e48 d33d ddc4 e8bd
000000d0: 684f da3c 411b cebd d045 2c3c 9cd2 76bd
000000e0: f08c 363d a364 71bd cd30 afbd 5e43 cd3d
000000f0: a00a 4f3d 646a 81bd 002c a2bc 40ac 853a
00000100: bc4c f6bd 58b5 d73d 48ce 93bc b85c fb3c
00000110: cc82 303d 6075 c4bc bc67 bd3d 7b07 89bd
00000120: 40c7 683d 20bf 5f3d fc58 6e3d 8ec3 abbd
00000130: dc7e c4bd f465 96bc c022 933a 5e75 51bd
00000140: 4058 b7bd 0345 cdbd 0810 13bd be3e e4bd
00000150: e487 c93d 0d73 e5bd adca debd 5ed3 cc3d
00000160: 4c8f b13d b790 a7bd 4830 883d c872 e1bc
00000170: 1070 16bd 70f2 e0bb deb0 32bd 7483 97bc
00000180: 8010 7b3c e069 f43b 803c f7ba ff5f 7ebd
00000190: dcc9 dcbc acbc 8bbc a87b 30bc 2958 edbd
000001a0: 48bc cc3c f04f dfbb 48a6 333d 6cb7 d6bc
000001b0: e800 583d fa6b 63bd 0c2f 5e3d f974 e2bd
000001c0: 4140 72bd ec56 74bd c9be 91bd 360f 7fbd
000001d0: 8482 bb3d 1efc b43d 5e35 d73d 3499 8c3d
000001e0: 4a83 16bd c09e 6d3d 0012 ae3a 52f4 843d
000001f0: 20a2 e93c ec9a 1a3d e057 f5bb 4e14 14bd

fc2.weight f4 [32, 128]
0.060396023 0.050027303 -0.016883552 -0.06254108 0.06532697 -0.05091593 0.029368274 -0.03692573
-0.032964915 0.08600325 -0.0038836822 -0.080497265 -0.0084582195 -0.07012093 -0.07343881 0.040767364
0.050954215 -0.07294888 -0.0020429865 0.0072064996 -0.03905622 0.0017922297 -0.061523743 0.078514
0.016935803 -0.048836995 0.05409307 -0.011084095 -0.072692774 -0.07219753 -0.015244007 -0.046355948
-0.075269036 -0.07454393 0.015287884 -0.08279471 -0.014739536 0.049358837 0.04256896 0.03126546
-0.0712437 -0.06546958 0.08452854 -0.008194916 0.075567506 -0.053639397 -0.013022795 0.038199805
0.04129254 0.004893355 -0.08425724 -0.05367848 0.08093744 0.056645297 -0.048256896 0.038043074
0.07021699 -0.050999615 0.07680557 0.062389664 -0.06770087 -0.033285726 0.04366704 0.0064529553
0.08216622 0.07249413 0.024889588 0.004070051 -0.069104835 -0.08548364 -0.026762046 -0.044725265
-0.030402754 0.081563435 -0.074532464 -0.05677781 -0.023644269 -0.023302078 -0.05901255 -0.016021661
-0.03377509 0.0043675825 -0.038937975 0.062192865 0.0016295686 0.0024040341 0.02745372 0.027822293
-0.02589826 0.021117613 -0.07620376 0.037397303 -0.017621532 -0.017504767 0.034574322 0.03104993
-0.07594948 0.034005605 0.0793531 -0.056377962 0.032747276 -0.08483739 -0.06875753 0.051698826
0.0642015 0.042437993 0.066686876 -0.053989395 -0.06029196 0.04821744 0.05866646 -0.0029696003
-0.06991155 0.07111154 -0.016378514 -0.03765605 -0.057601474 -0.059555963 -0.06871312 -0.0044130906
0.010668524 -0.056827586 -0.043808434 -0.036927752 0.08245198 0.0067218617 -0.018091388 -0.002041474
-0.0687411 -0.07116529 0.05716879 0.061601453 0.079667024 0.009426124 -0.03246987 0.04886014
-0.026001655 0.0069170967 0.07749123 0.023150139 0.0376124 -0.056069616 -0.034026183 -0.08260485
0.052735068 0.011510611 0.01831296 0.059349455 -0.039337866 0.015552513 0.029962376 -0.023054652
0.032268226 -0.021391675 0.059579037 0.05718545 -0.020902433 -0.08696362 0.05420258 0.042384528
-0.019454837 -0.013616942 -0.08344421 0.039684035 -0.048162952 -0.054133434 -0.056618065 -0.042019565
0.047611244 0.055718087 0.03021986 -0.0352655 0.022339284 0.017301701 0.029897332 0.043783553
0.073131986 0.06549918 0.053737186 -0.023145288 -0.07602504 -0.0045671985 0.0107906535 -0.030832462
-0.06057661 -0.08056137 0.069723405 -0.011846267 0.054359995 0.0056637377 0.023789242 0.047706
0.07775896 -0.05409985 0.07656593 0.07301297 -0.0022667348 -0.059212107 -0.027188089 -0.08051838
-0.02508717 -0.009444706 -0.060437992 -0.04411203 -0.006226048 0.0539381 -0.003012307 -0.044639993
0.070636936 0.05204285 0.04540629 -0.05248059 -0.0058362335 0.079869695 -0.037723053 0.05392722
-0.015095897 -0.05583003 0.060268693 -0.08392853 -0.05656348 0.0059982017 -0.028296847 0.044152237
0.01835318 -0.0058546513 0.05275791 0.06775708 0.0030536205 -0.048615787 -0.07349297 0.013061322
0.010219023 0.06238667 -0.021050774 0.018137924 -0.07316184 0.025654726 -0.017751485 -0.053671345
0.022869356 0.05046881 0.01150845 -0.029315408 0.041667156 0.059860922 0.06900161 0.020223692
-0.046251833 0.038735427 0.023487478 0.0077175647 -0.05706478 0.060340352 0.04814791 0.02453874
00000000: d261 773d 6ee9 4c3d 604f 8abc 8a15 80bd
00000010: 25ca 853d 398d 50bd bc95 f03c 6f3f 17bd
00000020: 3806 07bd 7922 b03d 6085 7ebb c0db a4bd
00000030: 5894 0abc 909b 8fbd 1667 96bd aefb 263d
00000040: 5eb5 503d 3966 95bd a0e3 05bb 8024 ec3b
00000050: 6af9 1fbd 40e9 ea3a 5200 7cbd f3cb a03d
00000060: f4bc 8a3c 4d09 48bd b290 5d3d 109a 35bc
00000070: f3df 94bd 4cdc 93bd 00c2 79bc bcdf 3dbd
00000080: a726 9abd 7daa 98bd 087a 7a3c 4690 a9bd
00000090: 187e 71bc 7e2c 4a3d ca5c 2e3d 3610 003d
000000a0: 38e8 91bd ea14 86bd 4d1d ad3d f843 06bc
000000b0: 23c3 9a3d fcb4 5bbd 905d 55bc 6677 1c3d
000000c0: 5e22 293d 7058 a03b 0f8f acbd f7dd 5bbd
000000d0: 87c2 a53d e604 683d 06a9 45bd 0ed3 1b3d
000000e0: edcd 8f3d f9e4 50bd 3d4c 9d3d 4e8c 7f3d
000000f0: c1a6 8abd 9d56 08bd 36dc 323d 5073 d33b
00000100: c346 a83d cd77 943d 40e5 cb3c 105e 853b
00000110: d686 8dbd 0c12 afbd 143c dbbc d731 37bd
00000120: 320f f9bc bb0a a73d 7aa4 98bd d98f 68bd
00000130: a0b1 c1bc 00e4 bebc 25b7 71bd dc3f 83bc
00000140: c057 0abd f01d 8f3b 6d7d 1fbd f2bd 7e3d
00000150: 4097 d53a 008d 1d3b a0e6 e03c 94eb e33c
00000160: 9628 d4bc d8fe ac3c b810 9cbd ea2d 193d
00000170: 085b 90bc 2866 8fbc ce9d 0d3d 6c5c fe3c
00000180: 678b 9bbd 7649 0b3d e183 a23d 94ec 66bd
00000190: 0222 063d 3abf adbd bfd0 8cbd 26c2 533d
000001a0: 137c 833d 76d3 2d3d 2193 883d fc23 5dbd
000001b0: b4f4 76bd a67f 453d 3e4c 703d a09d 42bb
000001c0: c92d 8fbd eda2 913d 3c2c 86bc 3b3d 1abd
000001d0: 86ef 6bbd f4f0 73bd 77b9 8cbd b09b 90bb
000001e0: 08cb 2e3c 0bc4 68bd 7970 33bd 8e41 17bd
000001f0: 95dc a83d 1043 dc3b 6434 94bc 40ca 05bb
00000200: 22c8 8cbd 1cbf 91bd d229 6a3d ce51 7c3d
00000210: 7728 a33d 0870 1a3c 20ff 04bd 9221 483d
00000220: 6c01 d5bc d0a8 e23b b9b3 9e3d 5ca5 bd3c
00000230: 760f 1a3d 41a9 65bd 0a5f 0bbd bb2c a9bd
00000240: ba00 583d 0097 3c3c 1005 963c 6a18 733d
00000250: be20 21bd f8cf 7e3c a873 f53c 1cdd bcbc
00000260: b02b 043d 983d afbc 2609 743d 4a3b 6a3d
00000270: 943b abbc fb19 b2bd 8603 5e3d 669b 2d3d
00000280: c05f 9fbc 9819 5fbc cce4 aabd ba8b 223d
00000290: 8446 45bd 05bb 5dbd 58e8 67bd b51c 2cbd
000002a0: 0204 433d a638 643d a48f f73c 8f72 10bd
000002b0: e000 b73c 4cbc 8d3c 40eb f43c 6256 333d
000002c0: 39c6 953d 6f24 863d 861b 5c3d 309b bdbc
000002d0: 04b3 9bbd 70a8 95bb 48cb 303c 5c94 fcbc
000002e0: 2e1f 78bd 5cfd a4bd 25cb 8e3d d816 42bc
000002f0: 96a8 5e3d e096 b93b a8e1 c23c 5e67 433d
00000300: 1740 9f3d ce97 5dbd 99ce 9c3d d387 953d
00000310: 808d 14bb 6588 72bd 8eb9 debc d2e6 a4bd
00000320: 9c83 cdbc f8bd 1abc d48d 77bd d1ae 34bd
00000330: e003 ccbb 32ee 5c3d 206a 45bb 6dd8 36bd
00000340: 19aa 903d e22a 553d f2fb 393d e3f5 56bd
00000350: e03d bfbb b992 a33d 7d83 1abd cae2 5c3d
00000360: c854 77bc 08ae 64bd 4edc 763d b9e2 abbd
00000370: 1caf 67bd 908c c43b cace e7bc fad8 343d
00000380: 6859 963c 60d8 bfbb ae18 583d 39c4 8a3d
00000390: 401f 483b 5921 47bd 7b83 96bd 28ff 553c
000003a0: b06d 273c 2a89 7f3d ac72 acbc fc95 943c
000003b0: e0d5 95bd dc29 d23c 906b 91bc 7cd6 5bbd
000003c0: 8458 bb3c 62b8 4e3d f08d 3c3c de26 f0bc
000003d0: 2eab 2a3d ba30 753d b750 8d3d 28ac a53c
000003e0: 9072 3dbd 0aa9 1e3d d068 c03c a0e3 fc3b
000003f0: c2bc 69bd 7227 773d be36 453d 7805 c93c

fc2.bias f4 [32]
0.05195234 -0.02667493 -0.08696382 0.027968645 0.06364592 -0.03064726 -0.014596224 0.039720915
-0.05500761 -0.023743302 -0.08412499 0.030152507 -0.06911588 0.047943868 -0.07626005 -0.0681525
-0.020669222 -0.05434892 0.034938052 -0.04196631 -0.030504413 -0.057839267 0.0056969374 0.030465752
0.06983427 0.081849314 -0.007142581 0.053755738 0.075070895 0.018453747 -0.07735807 0.073561154
00000000: facb 543d 6285 dabc 161a b2bd 801e e53c
00000010: cb58 823d f60f fbbc 0025 6fbc 66b2 223d
00000020: a94f 61bd 5081 c2bc b949 acbd 6402 f73c
00000030: a08c 8dbd ca60 443d 3b2e 9cbd 8a93 8bbd
00000040: 8052 a9bc f99c 5ebd 341b 0f3d dee4 2bbd
00000050: 64e4 f9bc dee8 6cbd 60ad ba3b 5093 f93c
00000060: 4505 8f3d 9da0 a73d 500c eabb fa2e 5c3d
00000070: c5be 993d 502c 973c e86d 9ebd 3ba7 963d

fc3.weight f4 [1, 32]
-0.14000656 0.11928396 0.15325363 0.10298608 0.14063044 -0.13930787 -0.04101993 0.16479416
0.07566334 0.14559822 0.1105008 -0.15001789 -0.057407968 0.105180606 0.051828593 0.095203355
-0.09220238 0.03879413 -0.09202785 -0.030143872 -0.1693081 0.1461163 0.003150329 -0.12547989
0.13246657 -0.086659774 -0.119089164 -0.09435105 -0.07824655 0.088779286 0.1020361 -0.113652475
00000000: e15d 0fbe 264b f43d 85ee 1c3e 5eea d23d
00000010: 6d01 103e b9a6 0ebe 8404 28bd cdbf 283e
00000020: 62f5 9a3d b317 153e 3e4e e23d 4a9e 19be
00000030: 9e24 6bbd ee68 d73d 384a 543d faf9 c23d
00000040: 9ad4 bcbd 98e6 1e3d 1979 bcbd 48f0 f6bc
00000050: 1a5f 2dbe 839f 153e c075 4e3b cd7d 00be
00000060: 51a5 073e ae7a b1bd 05e5 f3bd 203b c1bd
00000070: ba3f a0bd ead1 b53d 4ef8 d03d a1c2 e8bd
